…
2020-09-08 05:27:47.004907: I tensorflow/core/platform/cpu_feature_guard.cc:143] Your CPU supports instructions that this TensorFlow binary was not compiled to use: AVX2
2020-09-08 05:27:47.023132: I tensorflow/compiler/xla/service/service.cc:168] XLA service 0x294d83e8d30 initialized for platform Host (this does not guarantee that XLA will be used). Devices:
2020-09-08 05:27:47.032739: I tensorflow/compiler/xla/service/service.cc:176]   StreamExecutor device (0): Host, Default Version
Model: "sequential_1"
_________________________________________________________________
Layer (type)                 Output Shape              Param #
=================================================================
conv3d_1 (Conv3D)            (None, 40, 40, 4, 16)     448
_________________________________________________________________
max_pooling3d_1 (MaxPooling3 (None, 20, 20, 2, 16)     0
_________________________________________________________________
conv3d_2 (Conv3D)            (None, 20, 20, 2, 32)     13856
_________________________________________________________________
max_pooling3d_2 (MaxPooling3 (None, 10, 10, 1, 32)     0
_________________________________________________________________
flatten_1 (Flatten)          (None, 3200)              0
_________________________________________________________________
dense_1 (Dense)              (None, 256)               819456
_________________________________________________________________
dropout_1 (Dropout)          (None, 256)               0
_________________________________________________________________
dense_2 (Dense)              (None, 128)               32896
_________________________________________________________________
dropout_2 (Dropout)          (None, 128)               0
_________________________________________________________________
dense_3 (Dense)              (None, 5)                 645
=================================================================
Total params: 867,301
Trainable params: 867,301
Non-trainable params: 0
_________________________________________________________________

E:\Craig\10_university\Units\2020 S1\ELEC4712\pca-deep-learning>python src/train.py
Using TensorFlow backend.
2020-09-08 05:27:50.641229: W tensorflow/stream_executor/platform/default/dso_loader.cc:55] Could not load dynamic library 'cudart64_101.dll'; dlerror: cudart64_101.dll not found
…
